chatbot/data (1).pth (torch, 5162 bytes, 6 tensors)

l1.weight f4 [8, 49]
000000 fd b9 0e 3f d8 9f f2 3e a5 fc 14 3f 3f d0 39 3e
       0.55752546 0.47387576 0.58198005 0.18145846
000010 22 53 6d 3e 17 ba 13 bf 30 47 9b 3e 46 b8 ca 3e
       0.23176244 -0.57705826 0.3032775 0.39593714
000020 20 5b 94 3e cd e9 91 3e 8b 9e 48 3e c7 17 0d 3e
       0.28975773 0.28498688 0.1959173 0.13778602
000030 2b 92 69 be 6a 58 98 bd c3 25 8b 3c 36 e3 a8 bd
       -0.22809665 -0.07438739 0.01698578 -0.08246462
000040 18 da 28 3d e0 71 10 bf 84 0a c5 be c1 b5 7c 3e
       0.041223615 -0.5642376 -0.38484585 0.24678709
000050 27 5f d6 3e 10 2a b2 3e 1b 29 af 3e 99 61 46 bd
       0.4186947 0.34797716 0.34211048 -0.04843292
000060 39 e5 9d 3e 2e 6a 62 3e 9e 89 15 be df 65 a4 bd
       0.30838946 0.22110817 -0.14603278 -0.08027243
000070 d3 2a dd be 41 6e fc bd 4e a3 dd 3e 3f f3 da 3e
       -0.43196735 -0.12325717 0.43288654 0.42763707
000080 3c 00 2a be a7 9b d8 3e e4 72 21 3e 58 72 77 3e
       -0.16601652 0.42306253 0.15766484 0.24164712
000090 12 ad f9 be 64 10 d5 be 0b 0e 0b 3d 56 79 79 3b
       -0.48764855 -0.41614068 0.03394894 0.0038066707
0000a0 6d 55 7f 3f e0 b8 15 3f 9b 5d bf bd a4 2c 02 be
       0.99739724 0.5848522 -0.09344026 -0.12712342
0000b0 62 71 a5 be d6 06 82 be d8 07 90 be 60 a6 a6 3e
       -0.32313067 -0.2539584 -0.28130984 0.3254881
0000c0 61 16 b0 3e 70 7e c8 bd 47 c5 85 bd 81 09 d3 3e
       0.34392074 -0.09789741 -0.06531768 0.41218188
0000d0 9e 7b 74 3e 4b 1c 08 3f 01 2c 8c 3d 97 3d 95 3e
       0.23875281 0.5316817 0.068443306 0.29148552
0000e0 d3 8c 6c 3e 89 f6 ac 3d 6c ff 05 3e 6b 88 7a 3e
       0.23100595 0.0844546 0.13085717 0.24466102
0000f0 4c 0c 76 3e bd f2 71 3e 0d 24 22 3f 4e 0a c7 3e
       0.24028128 0.23627754 0.6333626 0.3887505
000100 9a fb b2 bd dc 9e 2f 3e 80 b5 cd bd f8 c8 f1 3e
       -0.087393954 0.17150444 -0.10044384 0.4722364
000110 55 36 0b 3f 0a 0e 8d bd b1 d3 02 3f 2b 24 0f 3f
       0.5437978 -0.06887443 0.51104265 0.5591456
000120 eb 9b d8 3e 1c 2c e5 3e 9f c5 49 3e d0 56 04 3f
       0.42306456 0.44760215 0.19704293 0.51694965
000130 12 94 f4 3e b0 58 6d 3e 4c 68 9f 3e 08 96 38 3c
       0.4776922 0.23178363 0.3113426 0.011266239
000140 43 d8 a4 3e 24 80 a7 3e 8b 97 2d 3e d1 b2 a9 3e
       0.32196245 0.3271495 0.1695234 0.3314424
000150 25 17 93 3e 04 29 4a 3d 69 db 1d 3f fb c3 8b 3e
       0.28728595 0.04935552 0.6166292 0.2729796
000160 0e d6 b8 3e 18 8a e0 be 79 00 69 be 4d 36 d5 3e
       0.3610081 -0.43855357 -0.22754087 0.4164299
000170 12 77 a7 3e fb 7b 00 3f f1 2f 5e 3d 3f 1b dd 3e
       0.3270803 0.5018918 0.05424494 0.4318485
000180 33 13 37 3e 12 62 8b 3e c1 e3 ea bd 1f a3 0e be
       0.17878418 0.2722326 -0.11469222 -0.13929413
000190 e0 4b 67 3c dc e8 bc bc a0 67 48 3d 1c ce e6 bd
       0.014117211 -0.023060255 0.04892695 -0.11269781
0001a0 6b 4e 0b 3e da 67 00 be c0 7c e8 3b f8 c6 54 bd
       0.13604133 -0.12539616 0.0070949495 -0.051947564
0001b0 e8 b8 9b 3d 30 8f a7 bc 46 5b f0 3d 40 ef 9e 3c
       0.076036274 -0.02045402 0.11736159 0.019401193
0001c0 f5 eb 09 be 28 38 c1 bd 9c bb 71 bd 5c ed d4 3d
       -0.13468917 -0.09434539 -0.05901681 0.10396835
0001d0 1a 13 b2 3d 24 55 d6 bc 14 dc 3a 3d 20 1c e4 3c
       0.086950496 -0.026163645 0.04562004 0.027845442
0001e0 90 6b de 3c ca 43 76 bd ea d1 a1 bd 14 ed 80 3d
       0.0271509 -0.060123242 -0.07901366 0.06295219
0001f0 3e 7d aa bd 18 c5 3e 3d 00 e0 89 3b 30 3b 0b bc
       -0.08324669 0.046574682 0.004207611 -0.008497998
000200 b8 b8 f5 3c 4c 9f f8 bd 0a fa f9 bd 90 7d 52 3d
       0.029995307 -0.121397585 -0.12205894 0.051389277
000210 70 16 3f bc ac d9 04 be aa 9e a3 bd a6 9d ce 3d
       -0.011663064 -0.1297366 -0.07989247 0.10088663
000220 9a 0e fd bd 20 e6 5b 3d 48 cf 77 3d 50 3f 37 bc
       -0.12356301 0.05368626 0.060500413 -0.0111845285
000230 e3 82 df bd ce 22 7c bd 60 8f 04 bc 9c 61 ea bd
       -0.109136365 -0.06155663 -0.008090824 -0.11444399
000240 c1 c1 ea bd a0 ac 06 bc a0 a5 9b bd 56 c0 20 be
       -0.11462737 -0.008219868 -0.0759995 -0.1569837
000250 c4 da a0 bd db 4d dc be 65 4a d3 be 53 aa 0b 3e
       -0.07854226 -0.4302815 -0.41267696 0.13639192
000260 0f 8a 16 3f d8 2a 51 be c6 9e ef bd 4b 4a 30 3d
       0.5880441 -0.204265 -0.117002055 0.0430396
000270 d5 8e 8e 3c 23 d5 91 be 2f fc 84 be 7d e6 b2 3e
       0.017402092 -0.28482923 -0.2597365 0.34941474
000280 93 a0 fc 3e 45 19 fe 3e 9f e2 e6 3e 4c c6 0c be
       0.49341258 0.49628654 0.45094773 -0.13747519
000290 5d 24 2a 3f 04 89 01 3f 4d 3a d8 be a0 ff 28 bc
       0.66461736 0.50599694 -0.4223198 -0.010314852
0002a0 cf 39 d8 be 1e 37 d8 be 37 ab 03 bf f8 ab e0 3e
       -0.42231604 -0.4222955 -0.5143313 0.43881202
0002b0 4d 21 6e be 00 f3 f9 3e 9d c6 a7 3e e4 8f 88 3e
       -0.2325489 0.48818207 0.32768717 0.2667228
0002c0 fa 6c 09 3f 1f eb b7 3d fe 09 87 be 0e 4f 95 3e
       0.5368191 0.08980393 -0.2637481 0.29161876
0002d0 e5 9d c0 3d b2 60 4e be a0 05 52 be 9e 5d 26 3e
       0.09405116 -0.20154074 -0.20509958 0.1624665
0002e0 41 af 00 3f ab 42 d2 3e 6e d5 f9 3e fa 66 e6 be
       0.50267416 0.4106649 0.48795646 -0.4500044
0002f0 00 02 69 be 4e a7 c4 3e af 2e b9 3e 3c 6b e5 3e
       -0.22754669 0.38408893 0.3616843 0.44808376
000300 f8 a4 d5 3e 43 c8 a8 3e f1 20 29 3d 52 06 2d 3e
       0.41727424 0.32965288 0.04129118 0.16896942
000310 d9 ec 54 b9 ec a3 a2 3e 86 e7 c5 3e 2d 7e f6 3e
       -0.00020306128 0.31765687 0.386532 0.4814314
000320 94 70 d9 3e f7 66 ff be 8c ca 84 3e 8f 92 cc 3e
       0.42468703 -0.49883243 0.2593578 0.39955565
000330 47 9d 8c 3e d0 9f b7 3e be 5f 1a 3f 3c 3e 80 3e
       0.27463743 0.35864115 0.6030234 0.2504748
000340 e9 b4 aa be c9 a6 36 3e 15 85 48 be 4f de 9a be
       -0.33341148 0.17837061 -0.19582017 -0.30247733
000350 ff 21 cf 3e f5 6c ff be cd c4 74 3d 9c 1b 3d 3f
       0.40455624 -0.49887815 0.059757996 0.73870254
000360 d2 1c bd 3d b8 6f e3 3e 04 9d 1c 3f 17 c2 cf 3e
       0.09234013 0.44421172 0.61177087 0.40577766
000370 a8 83 5e 3e fb 67 c1 3e 22 5c 2f be 93 e4 ba bd
       0.2172991 0.37774643 -0.1712499 -0.09125628
000380 ab 5a dd be fc 80 35 be 1f 39 27 3e 7c fc ae 3e
       -0.43233237 -0.17724985 0.16330384 0.34177005
000390 8e 16 f8 bd fa 8c 94 3e f3 63 e9 3d b7 42 0c 3e
       -0.12113677 0.29013807 0.11396017 0.13697325
0003a0 09 21 62 be f4 e4 3e be dc 46 4f be b1 f6 74 be
       -0.22082914 -0.18642026 -0.20241874 -0.2392223
0003b0 db da 0e be ff 30 c0 3b 36 4a e1 3e 2d 8e ad bd
       -0.13950674 0.005865216 0.4400193 -0.084743835
0003c0 01 c9 8a be fe 6a 84 be e8 09 ac bd fd 47 ae 3e
       -0.2710648 -0.2586288 -0.08400327 0.34039298
0003d0 ba 95 28 3e 3c b3 5d be 36 6d 0a be 9c 5b f2 be
       0.16463366 -0.21650404 -0.13518223 -0.47335517
0003e0 63 9c f3 3e 7e 49 9a 3e 63 d7 0c 3f fa 37 5f bd
       0.4758025 0.30134195 0.55016154 -0.054496743
0003f0 34 25 76 be 62 3c ff be 5a 9c 8d be 0e f0 f2 3e
       -0.2403763 -0.49850756 -0.2765835 0.47448772

l1.bias f4 [8]
000000 35 bf 13 3f 53 33 fc 3e 17 4c 0f be 72 41 d8 3e
       0.57713634 0.49257907 -0.1399387 0.4223743
000010 3d 6b ff 3e 6c 79 66 3f 33 85 28 3f 27 2c 9c 3e
       0.49886504 0.90029025 0.65828246 0.30502436

l2.weight f4 [8, 8]
000000 cd 08 d4 be 7f d1 1e 3f 90 2b 99 3d 56 df f7 3e
       -0.41412964 0.62038416 0.07479012 0.4841258
000010 ec e5 aa 3d db 71 3e 3f d9 85 2b bf ab 04 19 bf
       0.08344635 0.7439248 -0.6700111 -0.5977275
000020 f8 10 fa be 7f 46 0a 3f 8e 9b 3d be db f7 74 3e
       -0.4884107 0.5401382 -0.1851637 0.23922674
000030 33 b1 c3 3e 2a e6 a4 3f 6f 67 a2 bd 43 97 47 bf
       0.3822113 1.288274 -0.07929885 -0.7796518
000040 a3 46 b2 3e 80 25 6d 3f 80 d2 fa bb 36 38 af be
       0.34819517 0.92635345 -0.007654488 -0.34222573
000050 01 ca 5c 3f e7 1a 3b 3f 8f 55 53 bf 29 0f 97 3e
       0.86245733 0.73087925 -0.8255243 0.29503754
000060 eb 53 e2 3e 0d 03 ff 3e 0c 02 f1 3d 05 05 8d bf
       0.4420465 0.49807015 0.117679685 -1.1017157
000070 a8 cc 5d 3f 7e 62 47 3e 69 17 3c bf b8 5f d4 3e
       0.86640406 0.19471166 -0.7347322 0.41479278
000080 54 df 69 3e b3 79 71 3f de bb 1b 3e 66 fa 57 3f
       0.22839099 0.94326323 0.15208384 0.8436645
000090 89 0e 3d 3e 56 09 1d bf bf a5 c1 be 2e 47 95 3f
       0.18462576 -0.6134237 -0.37821767 1.1662347
0000a0 0c 24 52 3f 70 e7 1c be b3 3d 04 be ce 68 ed bd
       0.82086253 -0.15322661 -0.12914161 -0.115922555
0000b0 d9 9a 14 bd 2a 9b 95 3e 28 28 9b 3f 00 c8 17 bf
       -0.036280487 0.29219943 1.212163 -0.5928955
0000c0 f0 db 88 3f 00 75 24 3e 3c d0 56 be 89 df 53 bf
       1.069212 0.16060257 -0.20977873 -0.8276296
0000d0 d3 b4 67 3f 00 56 c5 3d a3 93 38 3e 42 16 08 3e
       0.9051029 0.09635544 0.18025069 0.1328974
0000e0 b1 2b 77 bf ce 05 38 3f 34 b5 9b be f4 75 7e 3f
       -0.9655104 0.7188386 -0.30411685 0.9939873
0000f0 ab d7 69 bf ca a8 b7 3e 0e 3e 35 3f be a9 0c 3f
       -0.9134471 0.35870963 0.7079781 0.54946506

l2.bias f4 [8]
000000 94 4d e6 3e 50 cb 19 3f 07 7b 68 bd 1e b6 30 3d
       0.44981062 0.60075855 -0.056757953 0.04314243
000010 ce 1d 42 3d 9f 83 03 3f 01 74 ef 3e 1d 5b fc 3e
       0.047391705 0.5137271 0.4676819 0.49288264

l3.weight f4 [6, 8]
000000 99 ff 62 3e 74 f1 19 3f f2 cf d4 3e 9f 72 e4 3e
       0.22167815 0.60134053 0.415649 0.446187
000010 44 99 38 bf b7 d0 2b bf fd 45 00 3f c5 37 62 bf
       -0.72108865 -0.6711535 0.50106794 -0.8836635
000020 85 f0 2d 3b e5 c8 34 3f b6 c3 94 bf 4b f4 25 bf
       0.0026541066 0.7061904 -1.1622226 -0.64825886
000030 43 28 8f bf e0 94 98 3e d1 e6 4f bf c7 dd 35 3f
       -1.1184162 0.29801083 -0.8121157 0.7104153
000040 9b fd 70 bf f5 8f 8a be e6 00 82 bf 73 21 53 bf
       -0.9413697 -0.27062955 -1.0156524 -0.82472914
000050 ed 3b 4b bf 55 81 58 3f 0a e1 42 3f ad 7b 7f bf
       -0.79388314 0.84572345 0.7612463 -0.9979809
000060 31 62 43 3f 22 70 8e 3e 40 93 be 3d e3 60 0b bf
       0.76321703 0.27819926 0.093054295 -0.5444471
000070 65 13 4e 3e 15 ac cc bf b8 62 3c bf d9 d1 38 3e
       0.20124586 -1.5990015 -0.7358813 0.180488
000080 0c e6 84 bf 5d f5 92 bf 32 13 bc 3e 0d 13 3c 3f
       -1.0382705 -1.1481129 0.36733395 0.7346657
000090 f6 88 44 3f 7e 88 78 bf dc 17 c8 3e c2 f5 68 bf
       0.76771486 -0.9708327 0.39080703 -0.90999997
0000a0 e3 6e d5 be c6 ec 8b bf 71 da f3 be e5 7f a7 bd
       -0.41686162 -1.0931633 -0.47627595 -0.08178691
0000b0 6b 80 0a 3f 77 ac 7d bf 70 59 6e be 2c bd 54 3f
       0.541022 -0.99091285 -0.23276305 0.83101153

l3.bias f4 [6]
000000 dc b8 e8 3d ab be 59 3e 7d 08 19 3f fc 3e d3 be
       0.11363384 0.2126414 0.5977858 -0.4125899
000010 37 c4 4e be ff bd 67 3e
       -0.20192038 0.22631072
